 CUDA-version: 11080 (12000), cuDNN: 8.9.0, CUDNN_HALF=1, GPU count: 1  
 CUDNN_HALF=1 
 OpenCV version: 4.5.4
valid: Using default '/content/drive/MyDrive/VISION/train_test_split/train.txt'
 0 : compute_capability = 750, cudnn_half = 1, GPU: Tesla T4 
   layer   filters  size/strd(dil)      input                output
   0 conv     32       3 x 3/ 2    512 x 320 x   3 ->  256 x 160 x  32 0.071 BF
   1 conv     64       3 x 3/ 2    256 x 160 x  32 ->  128 x  80 x  64 0.377 BF
   2 conv     64       3 x 3/ 1    128 x  80 x  64 ->  128 x  80 x  64 0.755 BF
   3 route  2 		                       1/2 ->  128 x  80 x  32 
   4 conv     32       3 x 3/ 1    128 x  80 x  32 ->  128 x  80 x  32 0.189 BF
   5 conv     32       3 x 3/ 1    128 x  80 x  32 ->  128 x  80 x  32 0.189 BF
   6 route  5 4 	                           ->  128 x  80 x  64 
   7 conv     64       1 x 1/ 1    128 x  80 x  64 ->  128 x  80 x  64 0.084 BF
   8 route  2 7 	                           ->  128 x  80 x 128 
   9 max                2x 2/ 2    128 x  80 x 128 ->   64 x  40 x 128 0.001 BF
  10 conv    128       3 x 3/ 1     64 x  40 x 128 ->   64 x  40 x 128 0.755 BF
  11 route  10 		                       1/2 ->   64 x  40 x  64 
  12 conv     64       3 x 3/ 1     64 x  40 x  64 ->   64 x  40 x  64 0.189 BF
  13 conv     64       3 x 3/ 1     64 x  40 x  64 ->   64 x  40 x  64 0.189 BF
  14 route  13 12 	                           ->   64 x  40 x 128 
  15 conv    128       1 x 1/ 1     64 x  40 x 128 ->   64 x  40 x 128 0.084 BF
  16 route  10 15 	                           ->   64 x  40 x 256 
  17 max                2x 2/ 2     64 x  40 x 256 ->   32 x  20 x 256 0.001 BF
  18 conv    256       3 x 3/ 1     32 x  20 x 256 ->   32 x  20 x 256 0.755 BF
  19 route  18 		                       1/2 ->   32 x  20 x 128 
  20 conv    128       3 x 3/ 1     32 x  20 x 128 ->   32 x  20 x 128 0.189 BF
  21 conv    128       3 x 3/ 1     32 x  20 x 128 ->   32 x  20 x 128 0.189 BF
  22 route  21 20 	                           ->   32 x  20 x 256 
  23 conv    256       1 x 1/ 1     32 x  20 x 256 ->   32 x  20 x 256 0.084 BF
  24 route  18 23 	                           ->   32 x  20 x 512 
  25 max                2x 2/ 2     32 x  20 x 512 ->   16 x  10 x 512 0.000 BF
  26 conv    512       3 x 3/ 1     16 x  10 x 512 ->   16 x  10 x 512 0.755 BF
  27 conv    256       1 x 1/ 1     16 x  10 x 512 ->   16 x  10 x 256 0.042 BF
  28 conv    512       3 x 3/ 1     16 x  10 x 256 ->   16 x  10 x 512 0.377 BF
  29 conv     18       1 x 1/ 1     16 x  10 x 512 ->   16 x  10 x  18 0.003 BF
  30 yolo
[yolo] params: iou loss: ciou (4), iou_norm: 0.07, obj_norm: 1.00, cls_norm: 1.00, delta_norm: 1.00, scale_x_y: 1.05
  31 route  27 		                           ->   16 x  10 x 256 
  32 conv    128       1 x 1/ 1     16 x  10 x 256 ->   16 x  10 x 128 0.010 BF
  33 upsample                 2x    16 x  10 x 128 ->   32 x  20 x 128
  34 route  33 23 	                           ->   32 x  20 x 384 
  35 conv    256       3 x 3/ 1     32 x  20 x 384 ->   32 x  20 x 256 1.132 BF
  36 conv     18       1 x 1/ 1     32 x  20 x 256 ->   32 x  20 x  18 0.006 BF
  37 yolo
[yolo] params: iou loss: ciou (4), iou_norm: 0.07, obj_norm: 1.00, cls_norm: 1.00, delta_norm: 1.00, scale_x_y: 1.05
Total BFLOPS 6.426 
avg_outputs = 283705 
 Allocate additional workspace_size = 134.22 MB 
 0 : compute_capability = 750, cudnn_half = 1, GPU: Tesla T4 
   layer   filters  size/strd(dil)      input                output
   0 conv     32       3 x 3/ 2    512 x 320 x   3 ->  256 x 160 x  32 0.071 BF
   1 conv     64       3 x 3/ 2    256 x 160 x  32 ->  128 x  80 x  64 0.377 BF
   2 conv     64       3 x 3/ 1    128 x  80 x  64 ->  128 x  80 x  64 0.755 BF
   3 route  2 		                       1/2 ->  128 x  80 x  32 
   4 conv     32       3 x 3/ 1    128 x  80 x  32 ->  128 x  80 x  32 0.189 BF
   5 conv     32       3 x 3/ 1    128 x  80 x  32 ->  128 x  80 x  32 0.189 BF
   6 route  5 4 	                           ->  128 x  80 x  64 
   7 conv     64       1 x 1/ 1    128 x  80 x  64 ->  128 x  80 x  64 0.084 BF
   8 route  2 7 	                           ->  128 x  80 x 128 
   9 max                2x 2/ 2    128 x  80 x 128 ->   64 x  40 x 128 0.001 BF
  10 conv    128       3 x 3/ 1     64 x  40 x 128 ->   64 x  40 x 128 0.755 BF
  11 route  10 		                       1/2 ->   64 x  40 x  64 
  12 conv     64       3 x 3/ 1     64 x  40 x  64 ->   64 x  40 x  64 0.189 BF
  13 conv     64       3 x 3/ 1     64 x  40 x  64 ->   64 x  40 x  64 0.189 BF
  14 route  13 12 	                           ->   64 x  40 x 128 
  15 conv    128       1 x 1/ 1     64 x  40 x 128 ->   64 x  40 x 128 0.084 BF
  16 route  10 15 	                           ->   64 x  40 x 256 
  17 max                2x 2/ 2     64 x  40 x 256 ->   32 x  20 x 256 0.001 BF
  18 conv    256       3 x 3/ 1     32 x  20 x 256 ->   32 x  20 x 256 0.755 BF
  19 route  18 		                       1/2 ->   32 x  20 x 128 
  20 conv    128       3 x 3/ 1     32 x  20 x 128 ->   32 x  20 x 128 0.189 BF
  21 conv    128       3 x 3/ 1     32 x  20 x 128 ->   32 x  20 x 128 0.189 BF
  22 route  21 20 	                           ->   32 x  20 x 256 
  23 conv    256       1 x 1/ 1     32 x  20 x 256 ->   32 x  20 x 256 0.084 BF
  24 route  18 23 	                           ->   32 x  20 x 512 
  25 max                2x 2/ 2     32 x  20 x 512 ->   16 x  10 x 512 0.000 BF
  26 conv    512       3 x 3/ 1     16 x  10 x 512 ->   16 x  10 x 512 0.755 BF
  27 conv    256       1 x 1/ 1     16 x  10 x 512 ->   16 x  10 x 256 0.042 BF
  28 conv    512       3 x 3/ 1     16 x  10 x 256 ->   16 x  10 x 512 0.377 BF
  29 conv     18       1 x 1/ 1     16 x  10 x 512 ->   16 x  10 x  18 0.003 BF
  30 yolo
[yolo] params: iou loss: ciou (4), iou_norm: 0.07, obj_norm: 1.00, cls_norm: 1.00, delta_norm: 1.00, scale_x_y: 1.05
  31 route  27 		                           ->   16 x  10 x 256 
  32 conv    128       1 x 1/ 1     16 x  10 x 256 ->   16 x  10 x 128 0.010 BF
  33 upsample                 2x    16 x  10 x 128 ->   32 x  20 x 128
  34 route  33 23 	                           ->   32 x  20 x 384 
  35 conv    256       3 x 3/ 1     32 x  20 x 384 ->   32 x  20 x 256 1.132 BF
  36 conv     18       1 x 1/ 1     32 x  20 x 256 ->   32 x  20 x  18 0.006 BF
  37 yolo
[yolo] params: iou loss: ciou (4), iou_norm: 0.07, obj_norm: 1.00, cls_norm: 1.00, delta_norm: 1.00, scale_x_y: 1.05
Total BFLOPS 6.426 
avg_outputs = 283705 
 Allocate additional workspace_size = 189.33 MB 
Loading weights from /content/yolov4-tiny.conv.29... Prepare additional network for mAP calculation...
net.optimized_memory = 0 
mini_batch = 1, batch = 4, time_steps = 1, train = 0 
…
